HW13/student_best.ckpt (torch, 257955 bytes, 52 tensors)

cnn.0.0.weight f4 [3, 1, 3, 3]
-0.06859243 -0.3392872 0.05301413 0.018046053 -0.44662336 -0.2421257 -0.2273979 0.029335646
0.20176834 0.007765718 -0.19239475 -0.10528996 -0.23107484 0.3018791 -0.26987025 0.022377668
-0.5502654 -0.4263993 -0.0010335324 -0.13446024 0.047758754 -0.10965414 -0.53125525 0.060425233
-0.116132766 -0.33706227 -0.13468283
00000000: 307a 8cbd 0db7 adbe 5825 593d 51d5 933c
00000010: d1ab e4be cdef 77be ffda 68be 4f51 f03c
00000020: 5c9c 4e3e 9077 fe3b 2103 45be 43a2 d7bd
00000030: e29e 6cbe e68f 9a3e 6f2c 8abe 5f51 b73c
00000040: 31de 0cbf 0251 dabe 9877 87ba f2af 09be
00000050: af9e 433d 5a92 e0bd 5800 08bf 7380 773d
00000060: 04d7 edbd 6d93 acbe 4cea 09be

cnn.0.0.bias f4 [3]
0.0023231932 0.0004465695 -7.027172e-05
00000000: b740 183b 8b21 ea39 d85e 93b8

cnn.0.1.weight f4 [32, 3, 1, 1]
0.5419684 -0.33305115 -0.25116423 -0.4299039 -0.4469714 -0.4499591 -0.36740786 0.4881121
-0.41927767 -0.05758943 0.5595613 -0.64610064 0.29859903 -0.31254867 0.059213594 0.09368546
-0.39758798 0.21540923 0.46899197 -0.57095534 0.22755364 -0.21757473 -0.06246326 0.78924865
0.38942984 0.3195098 0.14399642 -0.5716299 0.1463294 0.4734877 -0.305494 -0.27016386
0.5815649 -0.7665709 -0.07653204 -0.13755792 -0.16958074 0.3232489 -0.07067581 -0.49723485
0.2919925 0.48844197 0.50570685 0.1295482 -0.5320636 -0.48435533 0.39835852 0.16161686
0.5716997 -0.08911782 -0.4591207 0.36185506 -0.24682674 0.09012137 -0.17844054 0.6535487
0.15364657 0.3959191 -0.18055835 0.25576013 0.5849408 -0.014139316 0.09477501 0.21590862
0.48131305 0.22166415 0.013105179 -0.4735179 0.39313075 -0.35529378 0.23207013 -0.04688467
-0.8510635 -0.14850941 -0.01990477 0.34372684 0.008289918 -0.49427056 -0.88116455 -0.29119503
-0.14788616 0.31531277 -0.52917856 0.2748488 -0.094660275 0.45893562 -0.373039 -0.11104898
0.44707775 -0.33276036 0.31232458 0.20617975 -0.27442864 -0.2262352 0.10378139 0.77953255
00000000: 71be 0a3f ae85 aabe 9998 80be 5d1c dcbe
00000010: 6fd9 e4be 0a61 e6be e21c bcbe d4e9 f93e
00000020: 90ab d6be e5e2 6bbd 693f 0f3f da66 25bf
00000030: f9e1 983e 6106 a0be f489 723d 2ade bf3d
00000040: a790 cbbe 3d94 5c3e b71f f03e 212a 12bf
00000050: d203 693e e9cb 5ebe 7ad9 7fbd 330c 4a3f
00000060: 5963 c73e ca96 a33e cc73 133e 5656 12bf
00000070: 60d7 153e fb6c f23e b669 9cbe eb52 8abe
00000080: 70e1 143f fe3d 44bf d5bc 9cbd fcdb 0cbe
00000090: 93a6 2dbe e180 a53e 7bbe 90bd 9195 febe
000000a0: 0a80 953e 1115 fa3e 0176 013f 49a8 043e
000000b0: 5235 08bf 6cfd f7be a6f5 cb3e e47e 253e
000000c0: e95a 123f 6783 b6bd de11 ebbe 1145 b93e
000000d0: 26c0 7cbe 8e91 b83d 1eb9 36be f84e 273f
000000e0: 8755 1d3e e9b5 ca3e 4ae4 38be fef2 823e
000000f0: aebe 153f 97a8 67bc 6719 c23d 2617 5d3e
00000100: aa6e f63e edfb 623e 1bb7 563c f070 f2be
00000110: 6f48 c93e 11e9 b5be cba3 6d3e 240a 40bd
00000120: 4cdf 59bf da12 18be 540f a3bc f7fc af3e
00000130: 70d2 073c 0811 fdbe 0094 61bf 8417 95be
00000140: 786f 17be ad70 a13e 3f78 07bf fbb8 8c3e
00000150: 3fdd c1bd 9cf9 ea3e f8fe bebe a66d e3bd
00000160: 60e7 e43e 915f aabe 02e9 9f3e c920 533e
00000170: e981 8cbe 33aa 67be 568b d43d 728f 473f

cnn.0.1.bias f4 [32]
-0.0015644031 -0.0009433539 0.00037190435 0.0022553578 -0.00027792383 -0.0050108405 0.002096198 8.318932e-05
-0.0012914368 0.00028155188 0.0049437555 0.0019043933 -0.0017559704 0.0022303213 8.270471e-05 -0.0015679128
0.0005538756 -0.00309806 -0.0008521125 0.0013243563 0.0003405565 0.0025707672 -0.0043015736 -0.014031694
0.0018246934 -0.0004993542 0.0021996142 -0.00048025246 0.0011675663 -0.0017525795 0.00071117026 0.00042302505
00000000: a80c cdba 694b 77ba 28fc c239 a0ce 133b
00000010: 4eb6 91b9 fa31 a4bb 5e60 093b ed75 ae38
00000020: 6e45 a9ba 419d 9339 3aff a13b d69c f93a
00000030: 9728 e6ba 952a 123b c171 ad38 6c82 cdba
00000040: f631 113a d208 4bbb 4d60 5fba 0696 ad3a
00000050: b88c b239 517a 283b 37f4 8cbb 31e5 65bc
00000060: 8d2a ef3a 18e7 02ba 6727 103b 65ca fbb9
00000070: 0609 993a cfb6 e5ba d46d 3a3a 76c9 dd39

cnn.0.2.weight f4 [32]
0.8518024 1.3993323 0.7245957 0.7901605 0.61561954 0.85361564 0.78659624 0.5948938
1.2468145 1.0490291 0.6260605 0.7417795 0.9435415 0.93756735 0.9132297 0.70657575
1.0728089 0.9140717 0.7929771 0.87909234 1.025946 1.2935805 1.0682973 1.0041428
0.7511199 0.8166384 1.4503276 0.7399983 1.0111545 0.8932435 0.76891106 0.7193875
00000000: b90f 5a3f 521d b33f 1b7f 393f f547 4a3f
00000010: 3e99 1d3f 8e86 5a3f 5f5e 493f f64a 183f
00000020: 9e97 9f3f 9646 863f 8045 203f 43e5 3d3f
00000030: f08b 713f 6a04 703f 6cc9 693f 26e2 343f
00000040: cd51 893f 9a00 6a3f 8c00 4b3f 320c 613f
00000050: 3352 833f 0c94 a53f f7bd 883f c087 803f
00000060: 6549 403f 370f 513f 56a4 b93f 8770 3d3f
00000070: 836d 813f 9bab 643f 5bd7 443f c729 383f

cnn.0.2.bias f4 [32]
0.14317563 0.04047529 0.2814041 0.16974245 0.04312881 0.08137694 0.18930955 0.25898427
0.0846188 0.35303384 0.100606576 -0.20550476 0.2601324 0.15184072 -0.24021742 0.009838289
-0.07245358 -0.21954197 -0.2170454 0.08512482 -0.6215437 -0.0529684 0.20465253 0.6583592
0.17539376 0.2336296 1.0728755 0.51914793 0.03448252 -0.22779194 0.03216765 -0.10474515
00000000: a29c 123e 6bc9 253d 3314 903e f7d0 2d3e
00000010: d6a7 303d f4a8 a63d 5dda 413e 9699 843e
00000020: 9f4c ad3d dac0 b43e d20a ce3d d76f 52be
00000030: 1330 853e 227c 1b3e 8efb 75be c630 213c
00000040: 8b62 94bd 9ccf 60be 2641 5ebe ec55 ae3d
00000050: 7d1d 1fbf 65f5 58bd 6f90 513e 3b8a 283f
00000060: 6c9a 333e 993c 6f3e fc53 893f e1e6 043f
00000070: 8b3d 0d3d 4a42 69be 3ac2 033d a084 d6bd

cnn.0.2.running_mean f4 [32]
-0.3795001 -1.1795212 -0.13823539 -0.1707892 -0.113500625 -0.13168646 -0.12172202 0.72333056
0.68392825 0.42018017 0.23005119 -0.5997132 0.17539035 0.62438226 -0.22446063 0.36507437
-0.3420804 0.013160047 0.7790117 0.28601956 0.37146372 0.8605837 -0.050661404 0.0047149993
-0.5859843 -0.38255966 -0.8928929 -0.09278579 0.017530562 0.04537941 0.054675397 0.8799061
00000000: d64d c2be 8dfa 96bf 948d 0dbe 5de3 2ebe
00000010: 0473 e8bd d1d8 06be 6549 f9bd 312c 393f
00000020: ec15 2f3f db21 d73e 8a92 6b3e ce86 19bf
00000030: 8799 333e 84d7 1f3f 02d9 65be 07eb ba3e
00000040: 2a25 afbe 3d9d 573c 506d 473f 2871 923e
00000050: 7e30 be3e 374f 5c3f 5582 4fbd 4880 9a3b
00000060: 1103 16bf dcde c3be a194 64bf 7a06 bebd
00000070: 419c 8f3c c3df 393d 4ff3 5f3d 8741 613f

cnn.0.2.running_var f4 [32]
0.22242382 4.1008124 0.10937979 0.1848791 0.04201691 0.13285881 0.10630483 0.69657373
1.7729716 0.29866233 0.2478166 2.0575204 0.088771075 0.51203126 0.33459255 0.2088076
0.27709135 0.06995192 1.4436219 0.34371087 0.9109454 2.2079208 0.19011822 0.05938717
2.3998792 0.21201801 3.9961944 0.09396507 0.11651687 0.11275786 0.293929 1.118669
00000000: 12c3 633e db39 8340 8302 e03d f250 3d3e
00000010: ec19 2c3d 240c 083e 59b6 d93d a852 323f
00000020: bcf0 e23f 45ea 983e a3c3 7d3e 6aae 0340
00000030: 9ccd b53d 7b14 033f b74f ab3e a9d1 553e
00000040: ebde 8d3e f442 8f3d 9ac8 b83f dffa af3e
00000050: b833 693f 934e 0d40 5aae 423e f63f 733d
00000060: 9f97 1940 401b 593e a6c1 7f40 c270 c03d
00000070: 66a0 ee3d 98ed e63d dd7d 963e 8c30 8f3f

cnn.1.0.weight f4 [32, 1, 3, 3]
0.3503502 0.058057837 -0.18391614 -0.023974627 -0.11337757 -0.3260085 0.25444102 0.32699776
0.0038116074 -0.20978345 0.30014637 0.34262082 -0.4360435 -0.18090327 0.31817082 -0.1333746
-0.32078117 0.3005603 0.3458181 -0.16801941 -0.0538681 0.2792595 -0.16614781 0.17218632
-0.25080773 -0.2509857 -0.05078094 -0.06960177 0.18643065 0.32757655 0.29445922 0.11817764
-0.29069522 -0.10512864 0.30120048 -0.41918054 0.04156228 0.08689667 0.07328844 -0.08910672
0.20790727 0.33920968 -0.25748125 -0.12239176 -0.18229802 -0.048244588 -0.2619488 -0.29750007
0.38568187 0.33516583 -0.13909256 0.25100723 -0.30655208 0.18230358 0.28910884 -0.0729183
0.06678602 0.30243644 -0.17759663 -0.17551076 -0.02595896 -0.2922767 -0.21097599 0.14477687
-0.12139401 0.06307794 -0.15266743 0.18250546 0.30570975 0.090198465 -0.33191335 0.28340223
-0.4117197 -0.030204494 0.43136582 -0.2639667 0.020429723 0.16616677 -0.29664984 0.04879905
0.34949315 -0.03462008 -0.4606591 -0.2023717 -0.17202258 0.002942436 0.043196637 0.0050407313
0.40123016 0.44328752 0.22752443 0.094392285 0.2253852 0.07151182 0.1154843 0.096199535
-0.28883132 -0.21265349 0.10083605 0.09962495 -0.16118717 -0.12042246 0.5114934 -0.19743685
-0.05584471 -0.082272634 0.053593118 -0.36321086 -0.32260525 -0.31809852 0.06815347 -0.11494407
-0.11199941 0.22459075 -0.06886335 0.40491766 0.24447201 0.3190422 0.07678507 -0.27607313
0.21228267 -0.27706385 -0.35419005 0.43843347 -0.12392668 -0.052355234 -0.16927283 0.37143475
0.08842414 -0.1648598 -0.27356425 0.011327345 0.16585402 -0.2756492 -0.2703772 0.15934029
-0.0720451 -0.27553937 0.32302114 -0.36408737 -0.09334792 0.32462007 0.22042689 -0.10575094
0.2546526 0.45070577 0.124450795 0.122341976 0.030982094 -0.012485544 -0.24627006 -0.23721808
-0.41378677 -0.13187435 0.19846648 0.04541983 -0.27492473 -0.4659642 0.07973641 -0.24927264
-0.10371453 -0.031814836 0.08426169 0.18619157 0.25211257 -0.035036717 -0.015543299 0.22757506
-0.3195401 0.18570037 0.10315114 0.078468025 0.035795983 0.50194705 0.04945161 -0.23949742
0.14741017 0.019843753 -0.31206828 -0.26579663 -0.4593243 -0.28809115 -0.10343709 -0.108518794
-0.1063196 0.21369098 0.17479679 -0.10803231 0.6230395 -0.2388532 -0.106529266 -0.43452907
0.41355675 0.2900846 -0.39581013 0.36976692 0.34383607 -0.22489956 0.06290505 0.057107214
0.051570572 -0.5316289 0.2719728 -0.06261149 -0.21264753 -0.021198835 0.4038796 -0.43685815
0.19449413 -0.10357928 -0.4763228 -0.37057137 0.27685046 -0.0040757726 0.29834858 0.42863268
0.053449236 0.3111315 0.11279231 0.015985133 0.18507297 -0.08375415 0.32583275 -0.32986113
0.039936475 0.41726887 -0.13293207 -0.31532007 0.050215863 0.05658608 -0.40352768 -0.034276877
0.2611937 -0.29508924 0.26877308 0.2819204 0.37045613 0.30868855 -0.056326237 -0.117142186
-0.18917982 -0.31392863 -0.58465946 -0.19155312 -0.19697249 -0.072950564 -0.2345975 0.47837383
-0.015696915 -0.03656096 -0.1929676 -0.069589175 0.37438455 0.24135813 0.42951348 -0.28504798
00000000: 1a61 b33e 0ece 6d3d 8354 3cbe 7066 c4bc
00000010: 8032 e8bd 96ea a6be 1846 823e 406c a73e
00000020: 29cc 793b 79d1 56be c9ac 993e ff6b af3e
00000030: 1841 dfbe b53e 39be 49e7 a23e 5a93 08be
00000040: 6e3d a4be 0ae3 993e 120f b13e 480d 2cbe
00000050: cca4 5cbd 1afb 8e3e a722 2abe 9c51 303e
00000060: df69 80be 3381 80be adff 4fbd 5f8b 8ebd
00000070: ade7 3e3e 1db8 a73e 5cc3 963e 1e07 f23d
00000080: 01d6 94be af4d d7bd f336 9a3e d59e d6be
00000090: 363d 2a3d e2f6 b13d 4018 963d 967d b6bd
000000a0: a5e5 543e e4ac ad3e 95d4 83be 88a8 fabd
000000b0: 55ac 3abe 1e9c 45bd 271e 86be ee51 98be
000000c0: 1878 c53e db9a ab3e 486e 0ebe 0584 803e
000000d0: 65f4 9cbe caad 3a3e 1306 943e 3156 95bd
000000e0: 1cc7 883d f3d8 9a3e e4db 35be 18b9 33be
000000f0: e3a7 d4bc 4ba5 95be 170a 58be 6340 143e
00000100: 6c9d f8bd 022f 813d da54 1cbe b6e2 3a3e
00000110: fd85 9c3e f9b9 b83d 8cf0 a9be 191a 913e
00000120: edcc d2be 6a6f f7bc fbdb dc3e a526 87be
00000130: 3c5c a73c 9f27 2a3e 7de2 97be 83e1 473d
00000140: c4f0 b23e c9cd 0dbd 82db ebbe 873a 4fbe
00000150: b026 30be e2d5 403b f5ee 303d b82c a53b
00000160: 0a6e cd3e 95f6 e23e 2afc 683e be50 c13d
00000170: 61cb 663e ca74 923d 0883 ec3d 4304 c53d
00000180: b3e1 93be d6c1 59be 2283 ce3d 2a08 cc3d
00000190: 400e 25be 0da0 f6bd 3bf1 023f e32c 4abe
000001a0: 6cbd 64bd 8e7e a8bd 7584 5b3d c6f6 b9be
000001b0: 842c a5be cfdd a2be 0c94 8b3d cc67 ebbd
000001c0: f25f e5bd 1efb 653e 3a08 8dbd 5e51 cf3e
000001d0: df56 7a3e 8059 a33e 7e41 9d3d 7559 8dbe
000001e0: a160 593e 50db 8dbe 6658 b5be 5a7a e03e
000001f0: 45cd fdbd 7172 56bd db55 2dbe b22c be3e
00000200: b717 b53d 02d1 28be 9d10 8cbe 5496 393c
00000210: a3d5 293e e421 8dbe e16e 8abe 1a2a 233e
00000220: 628c 93bd 7f13 8dbe 0763 a53e a969 babe
00000230: 322d bfbd 9a34 a63e 96b7 613e f393 d8bd
00000240: d361 823e e8c2 e63e 0fe0 fe3d 6e8e fa3d
00000250: 29ce fd3c 2b90 4cbc 382e 7cbe 4ce9 72be
00000260: dcdb d3be 120a 07be cc3a 4b3e 250a 3a3d
00000270: efc2 8cbe dc92 eebe d84c a33d 5441 7fbe
00000280: 4968 d4bd 4650 02bd 6591 ac3d 01a9 3e3e
00000290: e614 813e a982 0fbd 52a9 7ebc 7009 693e
000002a0: c39a a3be 3d28 3e3e e840 d33d d8b3 a03d
000002b0: cf9e 123d 9a7f 003f c58d 4a3d d03e 75be
000002c0: b1f2 163e 5e8f a23c 6ac7 9fbe 7f16 88be
000002d0: 8e2c ebbe af80 93be d3d6 d3bd 1a3f debd
000002e0: 17be d9bd cfd1 5a3e eefd 323e 0b40 ddbd
000002f0: 847f 1f3f ef95 74be 042c dabd 987a debe
00000300: b6bd d33e f885 943e a0a7 cabe 1752 bd3e
00000310: 480b b03e 124c 66be 5dd4 803d 41e9 693d
00000320: aa3b 533d d518 08bf 0540 8b3e 743a 80bd
00000330: 46c0 59be 2ea9 adbc 4fc9 ce3e dfab dfbe
00000340: 7829 473e 6021 d4bd 95e0 f3be 88bb bdbe
00000350: 58bf 8d3e 0f8e 85bb 25c1 983e be75 db3e
00000360: 96ed 5a3d a14c 9f3e a8ff e63d 41f3 823c
00000370: c583 3d3e 4c87 abbd 8dd3 a63e 8fe3 a8be
00000380: 6e94 233d 44a4 d53e 581f 08be a271 a1be
00000390: 26af 4d3d cec6 673d 2e9b cebe e965 0cbd
000003a0: 2ebb 853e f015 97be a09c 893e df57 903e
000003b0: 6dac bd3e 6d0c 9e3e 57b6 66bd 3ee8 efbd
000003c0: 5bb8 41be 41bb a0be 3eac 15bf 8026 44be
000003d0: 28b3 49be 1b67 95bd 543a 70be 6aed f43e
000003e0: d196 80bc f2c0 15bd 4c99 45be c584 8ebd
000003f0: 55af bf3e 9626 773e 31e9 db3e cff1 91be

cnn.1.0.bias f4 [32]
0.0038246776 -0.0025094757 -0.0022099924 -0.00042738987 -0.00018978515 -0.0028704512 0.0011567316 0.0034223935
0.00226051 -0.004069087 -0.00048507322 -0.0027453448 0.0030115796 -0.0023790752 -0.0025046826 -0.0022460378
0.00037271442 0.0028556334 -0.0061183064 0.0013831165 -0.00065878907 0.00279112 -8.893184e-05 -0.00062577426
0.006156053 -0.0016064578 0.0001525652 0.0027458377 0.00030831245 -0.0042941566 -0.0015764543 0.0005673244
00000000: 71a7 7a3b 0476 24bb 85d5 10bb 4c13 e0b9
00000010: 1001 47b9 2e1e 3cbb 799d 973a 3c4a 603b
00000020: 1125 143b fa55 85bb 6d51 feb9 3eeb 33bb
00000030: ec5d 453b 42ea 1bbb 9a25 24bb 4332 13bb
00000040: e268 c339 9425 3b3b 137c c8bb b049 b53a
00000050: 96b2 2cba 39eb 363b eb80 bab8 000b 24ba
00000060: b7b8 c93b c78f d2ba e9f9 1f39 83f3 333b
00000070: ffa4 a139 ffb5 8cbb 07a1 ceba 7fb8 143a

cnn.1.1.weight f4 [64, 32, 1, 1]
0.046170596 -0.13527477 -0.08656465 -0.4103071 0.009448902 0.09815138 -0.0622697 0.07410049
-0.27025768 -0.07834619 0.0391706 0.089450695 -0.37174645 0.26308674 0.07303614 0.3643691
-0.45741954 0.11954318 -0.06759578 0.32962364 0.024694238 0.044699706 0.23630421 0.18959697
-0.074770086 -0.051373623 -0.2001129 -0.1360085 -0.17586231 -0.11378005 -0.09742485 -0.23438737
0.1704441 -0.08774155 -0.0005372348 0.2389183 -0.12321158 -0.042161774 0.24716629 0.14316325
-0.11374217 -0.042225827 -0.10717813 -0.29733047 -0.25777465 -0.035850238 0.0009216198 -0.17747852
-0.098169655 0.21188864 0.12147471 -0.0070165275 0.17980945 -0.05823647 -0.022777019 -0.14362574
0.34105116 0.0682455 -0.23150715 0.3523377 0.3334364 0.15433368 -0.1663965 -0.0031611612
-0.17151222 0.14591874 0.052725315 -0.074432395 0.1122458 -0.15210968 0.18719326 -0.34006208
-0.07501912 0.007722739 -0.2948474 -0.011475937 0.042992834 0.5608848 -0.1726661 0.20598535
-0.045265693 -0.20151262 -0.00042591227 0.079110555 -0.021819957 0.04304954 -0.3719855 -0.15227227
0.16805902 -0.18909395 0.18892401 0.3801281 -0.12096656 -0.18058933 0.03978729 0.040848233
0.05649296 0.0026418606 0.0005262622 -0.18461822 0.18551306 0.014612822 0.13389006 -0.20198226
0.012298664 -0.22694774 0.14614037 0.07060551 0.046676937 0.25251746 -0.003171002 0.23026448
-0.12423864 0.052376185 -0.2054084 -0.20507152 0.23777835 -0.21134894 -0.38743788 -0.05136815
0.20415688 -0.12656584 0.30481768 0.3274877 0.083428666 -0.1767483 0.24830145 -0.094264224
0.029931266 -0.43387663 0.072955705 -0.020002816 0.09801416 0.17713232 -0.054853126 -0.029290844
0.14258747 -0.42256865 0.06130115 0.12296296 -0.22600207 -0.13164185 -0.17789946 -0.117438905
-0.047524344 0.21884598 0.23732308 -0.11401105 -0.122961536 -0.565286 -0.03212107 0.051673893
0.0940025 0.07986158 -0.24989344 0.114883125 0.015211357 0.038782693 -0.024448065 -0.18198623
-0.41237375 0.02893569 0.030084811 0.005751317 0.37639245 0.1221336 0.2686927 0.09604788
-0.033143945 0.0026391882 0.103677884 0.27961823 -0.047574777 -0.08242574 -0.016231705 0.23864453
-0.05021315 0.0041539413 0.574481 -0.20243236 0.046408974 0.14518411 -0.09301573 0.04913616
-0.16043729 0.030274762 -0.20018151 0.37305802 -0.21798252 0.38569582 0.21328807 -0.31597942
-0.03708612 0.06113751 -0.045661684 0.08132289 0.018913385 -0.0438322 0.4457673 -0.11538361
-0.24375518 -0.072680764 0.22127862 -0.025718339 -0.15005507 0.057941213 -0.29592744 -0.18164267
0.18503255 -0.3060683 0.017436082 0.11852466 -0.20036094 -0.07706356 -0.071451396 0.041094527
0.26983204 -0.12788635 0.029926088 0.51734966 0.078106195 0.28614306 0.06299893 -0.06346632
-0.29157907 -0.070413426 0.13079341 -0.08327566 -0.0382636 0.30617577 -0.0933712 0.015525445
-0.2195209 -0.13878328 0.26356098 -0.3289273 -0.15225324 0.09931898 0.0167575 -0.037085336
-0.011509188 0.04105998 -0.05907249 -0.27079248 0.16814052 -0.20451283 -0.06539817 -0.08377481
0.5489566 0.19274417 -0.030283729 -0.24621093 0.00047468746 0.1060546 0.08328144 -0.048878714
00000000: 611d 3d3d 7885 0abe cf48 b1bd c613 d2be
00000010: 91cf 1a3c 9703 c93d 830e 7fbd ffc1 973d
00000020: 375f 8abe f873 a0bd 5a71 203d ed31 b73d
00000030: 8d55 bebe 4eb3 863e f993 953d 968e ba3e
00000040: e532 eabe 0ed3 f43d a86f 8abd 6ec4 a83e
00000050: 924b ca3c 0a17 373d bbf9 713e b525 423e
00000060: 0f21 99bd 266d 52bd 65ea 4cbe d045 0bbe
00000070: 4015 34be 8405 e9bd ae86 c7bd 3e03 70be
00000080: e688 2e3e d7b1 b3bd 38d5 0cba 00a7 743e
00000090: 5a56 fcbd d3b1 2cbd 2919 7d3e 6399 123e
000000a0: a8f1 e8bd fdf4 2cbd 3580 dbbd b33b 98be
000000b0: 0afb 83be b3d7 12bd dc98 713a eebc 35be
000000c0: 2c0d c9bd 56f9 583e bcc7 f83d e6ea e5bb
000000d0: f81f 383e 5d89 6ebd df96 babc a012 13be
000000e0: 429e ae3e 4cc4 8b3d 3610 6dbe 9b65 b43e
000000f0: 2db8 aa3e a609 1e3e d863 2abe 7c2b 4fbb
00000100: e6a0 2fbe b96b 153e 80f6 573d 0370 98bd
00000110: 20e1 e53d a4c2 1bbe 97af 3f3e 9e1c aebe
00000120: a0a3 99bd 080f fd3b 3df6 96be 9205 3cbc
00000130: 4119 303d 2596 0f3f 62cf 30be d3ed 523e
00000140: 8568 39bd 5359 4ebe fa4c dfb9 b704 a23d
00000150: c4bf b2bc b754 303d e274 bebe 43ed 1bbe
00000160: aa17 2c3e d8a1 41be 4c75 413e 26a0 c23e
00000170: 51bd f7bd 69ec 38be fff7 223d 7a50 273d
00000180: 2965 673d 1123 2d3b dcf4 093a 8f0c 3dbe
00000190: 23f7 3d3e 9e6a 6f3c 7a1a 093e 70d4 4ebe
000001a0: 5680 493c fd64 68be d2a5 153e 9f99 903d
000001b0: 5130 3f3d f849 813e 96d0 4fbb 74ca 6b3e
000001c0: d470 febd 6988 563d 9456 52be 45fe 51be
000001d0: 2b7c 733e db6b 58be 425e c6be 6967 52bd
000001e0: 800e 513e 7a9a 01be 1011 9c3e 78ac a73e
000001f0: a6dc aa3d 82fd 34be bc42 7e3e 9a0d c1bd
00000200: 6a32 f53c 1425 debe cd69 953d f2dc a3bc
00000210: a6bb c83d 2d62 353e acad 60bd 5af3 efbc
00000220: 7302 123e eb5a d8be ea16 7b3d 01d4 fb3d
00000230: 166d 67be 1fcd 06be 472b 36be cf83 f0bd
00000240: e3a8 42bd 2919 603e d204 733e a07e e9bd
00000250: 42d3 fbbd 95b6 10bf 6291 03bd 01a8 533d
00000260: 6284 c03d 788e a33d 11e4 7fbe d847 eb3d
00000270: 0e39 793c 9ada 1e3d 4f47 c8bc 995a 3abe
00000280: a722 d3be 8a0a ed3c 6c74 f63c 8b75 bc3b
00000290: 83b6 c03e 2e21 fa3d 1792 893e c0b4 c43d
000002a0: f2c1 07bd 3bf6 2c3b 1255 d43d 1f2a 8f3e
000002b0: c5dd 42bd d4ce a8bd 5af8 84bc 3b5f 743e
000002c0: 4eac 4dbd c91d 883b 3011 133f 6e4a 4fbe
000002d0: 5617 3e3d 25ab 143e 087f bebd 0043 493d
000002e0: ac49 24be c702 f83c 62fc 4cbe 7601 bf3e
000002f0: cf36 5fbe ec79 c53e 3068 5a3e 0ec8 a1be
00000300: 9ee7 17bd 536b 7a3d bf07 3bbd 9e8c a63d
00000310: 3ef0 9a3c 6589 33bd 9d3b e43e 3e4e ecbd
00000320: f59a 79be a7d9 94bd dd96 623e 44af d2bc
00000330: 09a8 19be c453 6d3d cd83 97be 8900 3abe
00000340: 2c79 3d3e fcb4 9cbe 1dd6 8e3c 0fbd f23d
00000350: 6b2b 4dbe 80d3 9dbd 1c55 92bd bc52 283d
00000360: 6d27 8a3e a4f4 02be 8e27 f53c 0771 043f
00000370: 24f6 9f3d 5881 923e 9505 813d a1fa 81bd
00000380: da49 95be ea34 90bd b5ee 053e 6e8c aabd
00000390: 4bba 1cbd 12c3 9c3e 6639 bfbd 705e 7e3c
000003a0: 16ca 60be 341d 0ebe 77f1 863e 2969 a8be
000003b0: 46e8 1bbe c067 cb3d 0647 893c cbe6 17bd
000003c0: 0991 3cbc 822e 283d fff5 71bd 50a5 8abe
000003d0: 072d 2c3e d06b 51be 7aef 85bd 2192 abbd
000003e0: 6b88 0c3f ba5e 453e 9515 f8bc b81e 7cbe
000003f0: 79df f839 2733 d93d 768f aa3d 0c35 48bd

cnn.1.1.bias f4 [64]
0.0009454528 0.0012899467 0.0017417858 0.0026605097 0.007449444 0.0048036566 0.0019913206 0.0017850647
-0.000683764 -0.0027200757 -0.0025859924 -0.0018693149 -0.0017036959 0.0027197762 -0.00077477074 0.0021528609
0.00049903826 0.0010863779 -0.0011473475 -0.001201467 0.0047024973 0.002178232 0.00011167584 -0.0044451635
0.0008915792 -0.0006803035 0.00057737954 -0.00056909985 -0.0016791999 0.0010815399 0.0023343284 -0.0016319242
-0.0008226848 -0.00069971447 -0.0035006828 -0.0045418353 0.0053570764 0.0005132691 0.0016184254 -0.0041283676
-0.002133852 0.0034648562 0.0015438137 0.0026984087 0.0026431782 5.006257e-07 -0.0023457604 0.00021425703
-0.0022461514 0.00037937955 0.005189095 -0.002639926 0.0011848649 -0.00025545905 0.00088733644 0.00088769494
-0.00017964558 -0.00045325063 0.00080616324 0.0007476159 -0.0036761235 0.0011207014 -9.690712e-06 -0.0033691484
00000000: 43d8 773a 6e13 a93a a24c e43a f25b 2e3b
00000010: 771a f43b fe67 9d3b d180 023b d5f8 e93a
00000020: a03e 33ba 4c43 32bb c179 29bb cd03 f5ba
00000030: 8c4e dfba 463e 323b fc19 4bba 0317 0d3b
00000040: e4d1 023a cb64 8e3a 9862 96ba 8b7a 9dba
00000050: 6817 9a3b abc0 0e3b 8333 ea38 bca8 91bb
00000060: deb8 693a 6556 32ba 495b 173a a52f 15ba
00000070: 9918 dcba 75c2 8d3a 88fb 183b 4ae6 d5ba
00000080: 71a9 57ba 0b6d 37ba b66b 65bb add3 94bb
00000090: 6a8a af3b e88c 063a 5821 d43a 4247 87bb
000000a0: 19d8 0bbb a412 633b cb59 ca3a c9d7 303b
000000b0: 2c39 2d3b bc62 0635 54bb 19bb 2faa 6039
000000c0: 2b34 13bb 76e7 c639 4909 aa3b 9c02 2dbb
000000d0: 784d 9b3a 22ef 85b9 249c 683a 33b4 683a
000000e0: 3e5f 3cb9 45a2 edb9 b354 533a a7fb 433a
000000f0: 1eeb 70bb 80e4 923a 4b95 22b7 eecc 5cbb

cnn.1.2.weight f4 [64]
0.84385526 0.8873897 0.8522255 0.8590669 0.95027125 1.3707114 1.0739728 1.1270841
1.0960624 1.20798 0.9713266 0.881623 0.7147227 0.80757576 0.8228304 0.77008545
1.0680598 0.71965784 0.87479955 0.761651 1.0600501 1.0096928 0.8368674 0.88881445
0.80206597 0.71879977 1.0329059 0.88018376 0.9568551 1.2386041 0.8386278 0.89529425
1.0532168 0.6806178 1.0375731 0.74267125 0.89049333 0.68280995 1.0192069 1.0859271
0.8351346 0.76199025 0.7226243 0.79027385 0.8026863 1.0318524 0.8961684 0.7766561
0.8722306 1.0110332 0.8226763 0.63934857 0.945967 0.8445338 0.823166 0.9379058
1.0352188 1.0763865 0.9140819 0.8339124 0.96401346 0.9035069 0.9133624 0.7718239
00000000: e606 583f f92b 633f 732b 5a3f cfeb 5b3f
00000010: fa44 733f 7973 af3f f177 893f 4b44 903f
00000020: c64b 8c3f 179f 9a3f dca8 783f 0cb2 613f
00000030: 11f8 363f 49bd 4e3f 03a5 523f 5224 453f
00000040: 2fb6 883f 7f3b 383f ddf2 5f3f 8ffb 423f
00000050: b9af 873f 9d3d 813f f13c 563f 5889 633f
00000060: 3254 4d3f 4303 383f 4336 843f b953 613f
00000070: 75f4 743f 948a 9e3f 50b0 563f 0132 653f
00000080: cfcf 863f f83c 2e3f 32cf 843f b41f 3e3f
00000090: 5ff7 633f a2cc 2e3f 5f75 823f a9ff 8a3f
000000a0: 62cb 553f cb11 433f e8fd 383f 634f 4a3f
000000b0: d97c 4d3f bd13 843f 4b6b 653f efd2 463f
000000c0: 814a 5f3f 8969 813f ea9a 523f 59ac 233f
000000d0: e52a 723f 5e33 583f 02bb 523f 981a 703f
000000e0: 0d82 843f 08c7 893f 4501 6a3f 487b 553f
000000f0: 96c9 763f 3a4c 673f 1ed2 693f 4096 453f

cnn.1.2.bias f4 [64]
0.06362717 0.63025224 -0.14161722 0.30974737 0.032696623 0.59796214 0.21776393 0.43344057
0.5745554 0.27712 -0.005256353 -0.06402629 -0.0983178 -0.001890306 0.18189155 0.5551395
-0.111271106 -0.14034265 0.13362065 0.031603042 0.6218694 0.40462956 -0.3379193 0.3264901
-0.17001475 -0.54998416 -0.052121945 -0.03422001 -0.13748658 0.8695157 -0.16746214 0.038981292
0.54014647 -0.021750545 0.0020717583 0.50623983 -0.12348335 -0.40663072 0.22724651 0.6765759
-0.15455222 -0.08168742 -0.1714606 0.027710108 -0.21953356 0.39885876 0.2925281 0.037805114
0.08967394 1.1972106 0.32500973 0.06407821 0.19372602 0.047494523 -0.5195985 0.5908447
-0.030067893 0.34996492 0.14760956 -0.42101285 -0.14203085 0.009608043 0.06311176 0.13241848
00000000: f64e 823d 3658 213f 1b04 11be 3597 9e3e
00000010: e5ec 053d 0c14 193f 82fd 5e3e eceb dd3e
00000020: 1016 133f ace2 8d3e 7c3d acbb 3720 83bd
00000030: d85a c9bd 25c4 f7ba c741 3a3e 9f1d 0e3f
00000040: 1be2 e3bd fcb5 0fbe dad3 083e 3172 013d
00000050: d532 1f3f 9b2b cf3e c203 adbe b629 a73e
00000060: 5918 2ebe c3cb 0cbf d27d 55bd 482a 0cbd
00000070: 48c9 0cbe 9598 5e3f 327b 2bbe d9aa 1f3d
00000080: 0a47 0a3f 332e b2bc 56c6 073b ef98 013f
00000090: d7e4 fcbd e731 d0be 4fb3 683e 1434 2d3f
000000a0: f042 1ebe bc4b a7bd 5e93 2fbe 4f00 e33c
000000b0: 68cd 60be 3737 cc3e 3ec6 953e 89d9 1a3d
000000c0: f8a6 b73d 323e 993f ad67 a63e 703b 833d
000000d0: 1d60 463e 9e89 423d 6804 05bf 9941 173f
000000e0: f150 f6bc 9a2e b33e f626 173e ff8e d7be
000000f0: 8970 11be 0e6b 1d3c bd40 813d b698 073e

cnn.1.2.running_mean f4 [64]
-0.057157163 0.021678025 -0.14218609 -0.14725086 0.01114815 -0.026888292 0.06642238 0.22715236
-0.07219132 0.2725094 -0.08706757 -0.14094003 -0.1584294 0.022623558 -0.069299735 0.087821364
-0.07802921 -0.1219928 -0.16365413 -0.12529121 0.0499468 -0.14873588 -0.047994718 0.026634322
0.22781597 0.17985402 -0.017000105 0.04384125 -0.23328541 0.15364175 -0.10635026 -0.034125637
0.07931226 -0.06436629 -0.018129816 0.10957432 -0.031359278 0.24079914 0.42189056 -0.29445016
0.0445942 -0.06676944 0.02867667 0.058523167 0.012344118 -0.13545996 -0.08074194 -0.133866
0.0047912044 -0.2991985 0.051240455 0.3325775 -0.14327092 -0.14076526 0.12716293 0.09173143
-0.034182638 -0.34131065 -0.11017189 -0.10860792 -0.11028288 0.07435365 -0.015403256 -0.066064484
00000000: a11d 6abd 1d96 b13c 3b99 11be eec8 16be
00000010: bba6 363c d644 dcbc 7508 883d a19a 683e
00000020: 0bd9 93bd 5a86 8b3e 7b50 b2bd 9552 10be
00000030: 513b 22be 0a55 b93c 05ed 8dbd b0db b33d
00000040: c7cd 9fbd 5cd7 f9bd f394 27be 574c 00be
00000050: 0495 4c3d 384e 18be 1c96 44bd 3930 da3c
00000060: 9748 693e a72b 383e ce43 8bbc e292 333d
00000070: 5fe2 6ebe 4354 1d3e 2ace d9bd 53c7 0bbd
00000080: 776e a23d 79d2 83bd fb84 94bc 8068 e03d
00000090: 9672 00bd 0d94 763e 0a02 d83e 2cc2 96be
000000a0: 68a8 363d 6bbe 88bd 56eb ea3c fdb5 6f3d
000000b0: fc3e 4a3c 04b6 0abe 085c a5bd 2b14 09be
000000c0: 89ff 9c3b 8c30 99be 83e1 513d 9947 aa3e
000000d0: 9db5 12be c524 10be 0037 023e b0dd bb3d
000000e0: 1803 0cbd 45c0 aebe cda1 e1bd d46d debd
000000f0: fedb e1bd ba46 983d f05d 7cbc d14c 87bd

cnn.1.2.running_var f4 [64]
0.053397454 0.049305473 0.057908174 0.039943516 0.047215287 0.188024 0.07374179 0.10749243
0.043970212 0.100895934 0.122934185 0.06325589 0.06704946 0.044178784 0.087397605 0.047294367
0.075025894 0.04140861 0.07822448 0.11533423 0.062269006 0.091692194 0.05773869 0.060699448
0.08598108 0.040006224 0.14281069 0.13399257 0.07661156 0.09889914 0.07488612 0.07141985
0.094988964 0.04089061 0.16934112 0.036011767 0.038546465 0.06674382 0.06504879 0.071345426
0.044676214 0.037555408 0.029430948 0.054269858 0.055610217 0.07449122 0.1459473 0.045977168
0.06336744 0.064238496 0.05439345 0.04089476 0.03830759 0.06760332 0.0774243 0.06433676
0.06711821 0.070594095 0.078889675 0.06594736 0.119233094 0.046615805 0.03959841 0.05505129
00000000: 4ab7 5a3d 89f4 493d 1f31 6d3d d09b 233d
00000010: d164 413d 5d89 403e f005 973d fe24 dc3d
00000020: 1c1a 343d 87a2 ce3d ebc4 fb3d 4e8c 813d
00000030: 3a51 893d d0f4 343d 84fd b23d bdb7 413d
00000040: 2da7 993d 139c 293d 2834 a03d 5a34 ec3d
00000050: c90d 7f3d 1ec9 bb3d 687f 6c3d fc9f 783d
00000060: d916 b03d 91dd 233d f73c 123e 5935 093e
00000070: 86e6 9c3d a28b ca3d e55d 993d 9244 923d
00000080: 9389 c23d ea7c 273d c267 2d3e 1381 133d
00000090: e6e2 1d3d fcb0 883d 4d38 853d 8d1d 923d
000000a0: 68fe 363d b3d3 193d 2c19 f13c 124a 5e3d
000000b0: 8ac7 633d da8e 983d 3673 153e 8e52 3c3d
000000c0: cac6 813d 798f 833d abcb 5e3d 4481 273d
000000d0: 6be8 1c3d 9c73 8a3d a290 9e3d fec2 833d
000000e0: 4675 893d a393 903d e990 a13d 690f 873d
000000f0: 7b30 f43d 37f0 3e3d f131 223d 767d 613d

cnn.3.0.weight f4 [64, 1, 3, 3]
0.37509885 0.1908409 0.20629402 0.20372534 -0.19833355 -0.06110731 0.037072215 -0.27526215
-0.075900935 -0.41176033 -0.15217522 -0.17619821 0.16324003 -0.19252259 -0.115346365 0.15404825
0.49672216 0.28397393 -0.19470306 -0.12726499 0.18962118 0.08698569 -0.42910698 -0.23430754
-0.016610077 -0.14969997 -0.20491202 -0.4181081 -0.12817223 0.12094832 -0.37377873 0.13415778
0.04789428 0.12320234 0.42789412 0.08604336 -0.061776683 -0.020376733 -0.33979997 0.25402686
0.20638302 0.2666318 -0.41090754 -0.1800319 0.34590098 0.60540485 0.09665428 0.24679707
0.31711605 -0.106946215 -0.13624403 -0.34729743 -0.20007761 -0.4527413 -0.29164526 -0.276251
-0.4148874 -0.020144492 0.045232162 0.29983422 0.07323253 0.32496414 0.3864161 0.4346424
-0.1508366 0.47873285 -0.028830163 0.105021104 0.05731226 -0.2604245 -0.16952893 -0.4493841
0.22294052 0.3466568 0.36301336 0.31601894 -0.0037001472 -0.1071023 -0.21660087 -0.39710322
-0.53330046 0.335928 0.018114869 0.10734663 0.27241755 0.3342574 -0.29698935 0.032103263
-0.3732326 -0.4305345 -0.041329045 0.056208752 0.09577518 0.15841556 0.1796481 0.06693686
0.36875 0.5693093 0.24674359 0.101304606 0.004116629 0.1506428 -0.127181 0.14564165
-0.033731326 -0.3217849 -0.3857383 -0.3194423 0.38939247 -0.28611964 -0.027439961 0.33215618
-0.27116802 -0.046494067 -0.1592468 0.24876627 0.21151577 -0.2172502 -0.14121038 -0.09187697
-0.14097838 -0.07144907 0.35811564 -0.19092803 -0.12906466 -0.17814377 -0.08007809 -0.2677458
0.35199082 0.040358048 0.4524497 0.25634408 0.215092 0.0783976 -0.055918965 -0.37823147
-0.28736666 -0.1828585 -0.06525769 -0.16545361 0.17774528 0.4302066 0.36843726 0.14443718
0.4756897 0.4094798 0.07342531 0.07671274 -0.43630016 -0.12336181 0.24927366 -0.33298177
0.14735806 -0.04586996 -0.26881176 0.21643272 -0.2713228 -0.15334758 -0.11239921 -0.17537473
0.06523782 0.2023021 0.3474406 0.4275384 -0.05918837 0.123181984 -0.17541197 0.12628855
-0.2466159 0.10105962 -0.28835842 -0.054749716 -0.23667087 0.13964084 0.14873682 0.2838901
0.23912722 0.21233822 -0.10345914 0.23964612 -0.08454571 0.3285562 0.0778629 -0.24745964
0.1821976 0.44984034 -0.44291973 -0.4551593 -0.030843377 0.09753117 -0.12156176 -0.53452355
0.28995523 0.21273427 -0.42316502 0.21025074 0.32370347 -0.18109968 -0.18809998 -0.19817951
-0.15263122 -0.078062944 -0.41610712 -0.20408513 -0.07758261 0.16374665 -0.14972517 -0.3835888
-0.17220446 -0.22866265 0.07428851 0.09734711 0.3603792 0.03875304 0.01969562 0.46248257
-0.13447842 -0.17248228 -0.10316433 -0.17964987 -0.22706898 -0.12460991 -0.15988792 -0.09304461
-0.17807116 0.21406074 0.16727948 0.3307593 0.26027 -0.07724521 0.32896394 0.21983655
-0.20059516 0.18488547 0.18724816 0.23696047 0.046005636 -0.08667522 0.12882236 0.52469033
-0.10452664 0.023096686 0.4776148 0.17063259 -0.107104264 -0.0717112 -0.30106705 -0.3377821
-0.31401902 -0.0695312 -0.038975846 0.22960249 0.17568183 -0.15637988 -0.29546732 0.3327208
00000000: f50c c03e cc6b 433e bd3e 533e 609d 503e
00000010: f317 4bbe a94b 7abd 09d9 173d 29ef 8cbe
00000020: f371 9bbd 40d2 d2be d2d3 1bbe 4e6d 34be
00000030: 6528 273e a424 45be b73a ecbd d3be 1d3e
00000040: 5e52 fe3e 0865 913e 3d60 47be c151 02be
00000050: 0e2c 423e 8e25 b23d e9b3 dbbe 51ee 6fbe
00000060: db11 88bc f34a 19be 75d4 51be 4412 d6be
00000070: 953f 03be c1b3 f73d ed5f bfbe a860 093e
00000080: cb2c 443d 8251 fc3d f014 db3e 8037 b03d
00000090: 8c09 7dbd 1bed a6bc 43fa adbe cf0f 823e
000000a0: 1256 533e f783 883e 7962 d2be 485a 38be
000000b0: ef19 b13e d0fb 1a3f aef2 c53d 5fb8 7c3e
000000c0: 095d a23e 9e06 dbbd 8e83 0bbe f8d0 b1be
000000d0: 25e1 4cbe b5cd e7be 8752 95be c570 8dbe
000000e0: 1f6c d4be 1006 a5bc 5c45 393d df83 993e
000000f0: f0fa 953d b361 a63e 55d8 c53e 7389 de3e
00000100: e974 1abe 791c f53e 3c2d ecbc 4e15 d73d
00000110: 43c0 6a3d 5c56 85be fe98 2dbe ac15 e6be
00000120: 854a 643e 007d b13e e3dc b93e 3ccd a13e
00000130: 2b7e 72bb 7358 dbbd 9ecc 5dbe 1d51 cbbe
00000140: 6186 08bf c1fe ab3e a265 943c 8dd8 db3d
00000150: 507a 8b3e c923 ab3e fd0e 98be b67e 033d
00000160: 5818 bfbe 056f dcbe a548 29bd 263b 663d
00000170: c725 c43d b037 223e acf5 373e 3116 893d
00000180: cdcc bc3e 41be 113f 5aaa 7c3e ca78 cf3d
00000190: c9e4 863b 1b42 1a3e bc3b 02be 1623 153e
000001a0: dc29 0abd fec0 a4be 7e7f c5be f18d a3be
000001b0: 735e c73e 467e 92be c5c9 e0bc 6010 aa3e
000001c0: 89d6 8abe 9070 3ebd 9811 23be 96bc 7e3e
000001d0: 9797 583e d676 5ebe 7499 10be fe29 bcbd
000001e0: a35c 10be e453 92bd ef5a b73e a382 43be
000001f0: 8729 04be 526b 36be fbff a3bd fa15 89be
00000200: 2438 b43e 7b4e 253d 7da7 e73e 883f 833e
00000210: 1441 5c3e ec8e a03d 490b 65bd 8ea7 c1be
00000220: b921 93be 423f 3bbe d3a5 85bd ac6c 29be
00000230: dc02 363e 0a44 dc3e cfa3 bc3e 57e7 133e
00000240: 9a8d f33e 56a7 d13e 0260 963d 921b 9d3d
00000250: bc62 dfbe 1ea5 fcbd 9841 7f3e 967c aabe
00000260: 08e5 163e 24e2 3bbd b2a1 89be 8aa0 5d3e
00000270: d2ea 8abe 2607 1dbe 8f31 e6bd 6f95 33be
00000280: 689b 853d 4828 4f3e bce3 b13e 50e6 da3e
00000290: 816f 72bd d646 fc3d 329f 33be c951 013e
000002a0: e188 7cbe 59f8 ce3d b7a3 93be 3d41 60bd
000002b0: d959 72be 02fe 0e3e 774e 183e 0b5a 913e
000002c0: c4dd 743e 316f 593e 63e2 d3bd cb65 753e
000002d0: 4d26 adbd 8538 a83e 9676 9f3d 0f66 7dbe
000002e0: 0292 3a3e 7951 e63e 60c6 e2be a40a e9be
000002f0: 40ab fcbc 6cbe c73d 5ff5 f8bd 89d6 08bf
00000300: 0375 943e 03d7 593e 16a9 d8be f84b 573e
00000310: 76bc a53e 3272 39be 489d 40be 92ef 4abe
00000320: 5c4b 1cbe 77df 9fbd fe0b d5be b1fb 50be
00000330: a2e3 9ebd 34ad 273e 8e51 19be c065 c4be
00000340: 5e56 30be 8b26 6abe 9324 983d ec5d c73d
00000350: 9f83 b83e 82bb 1e3d b558 a13c 84ca ec3e
00000360: b6b4 09be 329f 30be d247 d3bd 23f6 37be
00000370: c584 68be 7b33 ffbd a9b9 23be 2c8e bebd
00000380: 4958 36be bd32 5b3e 504b 2b3e 4859 a93e
00000390: 1c42 853e bd32 9ebd f66d a83e d51c 613e
000003a0: d168 4dbe 9e52 3d3e fbbd 3f3e c4a5 723e
000003b0: 6870 3c3d c782 b1bd 02ea 033e 1b52 063f
000003c0: 1012 d6bd 4335 bd3c ed89 f43e 4fba 2e3e
000003d0: 7b59 dbbd 52dd 92bd 7625 9abe c7f1 acbe
000003e0: 1ac7 a0be 6066 8ebd 23a5 1fbd ea1c 6b3e
000003f0: f0e5 333e 0c22 20be 7e47 97be 615a aa3e

cnn.3.0.bias f4 [64]
0.00053764647 0.00010497155 -0.00097047107 -0.00061732344 0.00029157492 -0.0007461402 0.0011450065 -0.00094654865
6.935704e-05 -4.351859e-05 -0.0009625634 -0.00087815156 -0.000719916 -0.00056898524 0.0009203414 -0.0002466887
1.0472633e-05 0.0005638791 -4.2510408e-05 -0.000815726 0.000485501 0.0001898634 -0.00044766502 0.0005172839
-0.00015274234 0.0013387651 -4.535434e-06 0.00050882535 -0.00021887074 -0.0007875708 0.00012416768 -0.00085629965
-0.00066276477 0.0006691731 0.00022405994 -0.0010162112 -0.0006295667 0.0008026865 -0.00018798577 0.0003954587
-0.00044299144 0.00012152881 -1.0455535e-05 0.0012932692 -2.938349e-05 0.0006181989 0.00022981853 -0.0013949249
0.00097044336 -0.00021341855 -0.00034135362 -0.00069627224 -0.00039357154 -0.00022328281 0.00015631029 8.927064e-05
-0.0005451939 -0.0011913176 -0.0008052079 0.0011923477 9.741508e-05 0.0006688414 0.00020717674 -0.00024644836
00000000: d8f0 0c3a 2c24 dc38 3667 7eba e0d3 21ba
00000010: 86de 9839 9f98 43ba 0b14 963a ce21 78ba
00000020: c773 9138 bb87 36b8 8954 7cba c133 66ba
00000030: bfb8 3cba f427 15ba 1143 713a ff55 81b9
00000040: 9eb3 2f37 49d1 133a 344d 32b8 72d6 55ba
00000050: d78a fe39 1116 4739 95b4 eab9 569a 073a
00000060: 7629 20b9 8179 af3a 152f 98b6 b162 053a
00000070: ab80 65b9 fb74 4eba 0233 0239 4c79 60ba
00000080: 64bd 2dba 726b 2f3a a2f1 6a39 6432 85ba
00000090: 8209 25ba 616b 523a 0c1e 45b9 9155 cf39
000000a0: 4e41 e8b9 48dd fe38 2e6a 2fb7 ea82 a93a
000000b0: 907c f6b7 a00e 223a 71fb 7039 ead5 b6ba
000000c0: 5a65 7e3a 1bc9 5fb9 b5f7 b2b9 0a86 36ba
000000d0: 4758 ceb9 0621 6ab9 39e7 2339 cf36 bb38
000000e0: 58eb 0eba fc25 9cba 9614 53ba 8d48 9c3a
000000f0: 534b cc38 3055 2f3a 953d 5939 bd35 81b9

cnn.3.1.weight f4 [96, 64, 1, 1]
-0.2821582 0.00023141813 -0.08546819 -0.3321714 -0.2751587 0.08487828 0.01332995 0.0013948426
-0.11291252 -0.009757148 0.15464829 0.095200345 0.1180953 -0.02182679 0.2721664 0.08252608
-0.12929028 0.3239795 -0.013988343 0.004152817 0.12392834 0.4767454 -0.014981496 0.07692466
0.33800018 -0.022150312 0.01973284 -0.049343873 0.3778673 -0.40562007 -0.11072199 0.025104286
0.1480508 0.23569651 0.029028857 0.25559604 -0.0043797255 -0.26570556 -0.014670797 -0.24248643
0.162361 0.07203563 -0.26855794 -0.023656018 0.32035485 -0.06201881 -0.016478855 -0.047202375
0.031413186 -0.05602109 0.1644067 0.21415055 0.0726751 0.29350474 -0.20285656 -0.030510778
0.24321584 0.31742254 -0.16079436 -0.016370473 -0.25331748 -0.14585145 -0.27243608 -0.0098841395
0.078888685 -0.14130916 0.118435785 0.07873591 -0.03597403 0.032884818 -0.20678987 -0.085889384
0.09336321 -0.11454683 -0.038750224 0.037931476 -0.012873454 -0.06137383 0.2380322 0.1521472
0.04705301 0.25746495 0.42818093 0.108126506 -0.15264432 -0.0285345 -0.112519085 -0.4798266
0.10213709 -0.73987293 0.2760871 -0.18674307 -0.09905997 0.13835512 -0.28159922 -0.05571963
-0.15612139 -0.06107464 0.13784339 0.06253529 -0.08607277 -0.4274832 -0.1456546 -0.067177266
0.014322679 -0.15301111 0.26992565 -0.013710609 -0.3796414 -0.063338526 -0.25321785 -0.1592301
-0.15317012 -0.04141209 0.09009472 -0.10010726 0.001316191 -0.17038411 -0.12106946 0.09186857
0.07703475 0.10341078 -0.064109705 0.15494616 -0.034005076 -0.037405554 0.013186138 -0.04664859
-0.093183585 -0.07248618 0.043514997 -0.1492939 0.22829476 0.29280117 0.09393558 0.054892626
-0.19623034 0.31455705 -0.043154765 0.41258788 -0.14842643 0.0625698 0.032429807 0.026849804
0.24631236 -0.11328763 -0.30787188 0.15482207 -0.23335397 -0.1781357 0.3327358 -0.06409361
0.19490059 -0.14854005 -0.040187437 -0.26986232 -0.3393529 0.10929299 0.019422274 0.05194993
0.07869656 0.037658878 0.050779946 -0.10356721 -0.12445129 0.05267793 0.17550966 0.2627617
-0.18702075 0.13261041 0.013328771 0.18192828 -0.31833175 0.39026615 -0.0013189537 0.03511926
0.11353566 0.013304463 0.52553195 0.09372273 -0.14028849 0.20620455 0.19499807 -0.08302099
-0.059527952 0.07435649 0.033516094 -0.48876464 -0.009048258 0.011963072 -0.1267637 0.11472194
-0.230496 0.1090127 0.30656356 -0.2411276 -0.10593169 -0.37777948 0.071352474 0.14488468
0.3766664 0.03791047 -0.5519402 0.053720817 -0.006913105 0.16133936 -0.11518624 -0.15046854
-0.113099165 0.05192076 -0.06362766 -0.18012597 -0.04442189 -0.044096567 -0.004299839 -0.20812789
-0.040951543 0.2595866 0.08871974 -0.36069074 0.102316394 -0.11294823 -0.10865752 0.4445495
-0.23323186 -0.1968178 -0.03376667 0.07776113 0.2251911 -0.052893206 0.08793094 0.12444972
0.012721 -0.0010584358 0.051442787 0.0017395134 -0.10349112 0.1783775 -0.03832718 0.044549443
-0.042858016 0.08465473 0.1487564 -0.060970444 0.025187738 0.02392085 -0.0873189 -0.21140198
0.1604847 0.096512176 0.11285615 -0.08970899 0.07301128 -0.087661706 -0.08186273 -0.1456728
00000000: 0a77 90be d5a8 7239 f209 afbd 5f12 aabe
00000010: 9ae1 8cbe aad4 ad3d dd65 5a3c 27d3 b63a
00000020: ae3e e7bd 72dc 1fbc 1f5c 1e3e 66f8 c23d
00000030: f3db f13d 19ce b2bc 6559 8b3e 6f03 a93d
00000040: ac64 04be a4e0 a53e 5d2f 65bc 5b14 883b
00000050: 24ce fd3d f917 f43e f374 75bc ad8a 9d3d
00000060: 5c0e ad3e 9274 b5bc c4a6 a13c cd1c 4abd
00000070: d377 c13e 6fad cfbe 36c2 e2bd 81a7 cd3c
00000080: a19a 173e 6d5a 713e edcd ed3c 7cdd 823e
00000090: cd83 8fbb 8f0a 88be c85d 70bc 5d4e 78be
000000a0: f641 263e 6b87 933d 6d80 89be 44ca c1bc
000000b0: 8d05 a43e 7007 7ebd aafe 86bc 4757 41bd
000000c0: 1dab 003d 5f76 65bd 3b5a 283e 484a 5b3e
000000d0: afd6 943d 4146 963e a1b9 4fbe bdf1 f9bc
000000e0: 930d 793e 3585 a23e 47a7 24be 5f1b 86bc
000000f0: d4b2 81be 155a 15be be7c 8bbe 16f1 21bc
00000100: 6490 a13d 59b3 10be 768e f23d 4b40 a13d
00000110: 8159 13bd 3bb2 063d b9c0 53be c6e6 afbd
00000120: 3635 bf3d 8797 eabd 8eb8 1ebd 095e 1b3d
00000130: 2eeb 52bc 2063 7bbd b7be 733e 7acc 1b3e
00000140: a8ba 403d 72d2 833e 883a db3e 6e71 dd3d
00000150: cb4e 1cbe 2fc1 e9bc 6870 e6bd d5ab f5be
00000160: 402d d13d 5068 3dbf 4a5b 8d3e 9339 3fbe
00000170: f4df cabd f7ac 0d3e c62d 90be 443a 64bd
00000180: 49de 1fbe 6729 7abd d126 0d3e 8112 803d
00000190: ec46 b0bd 14df dabe 7b26 15be 3c94 89bd
000001a0: aba9 6a3c f2ae 1cbe b233 8a3e 76a2 60bc
000001b0: 5c60 c2be a1b7 81bd c5a5 81be 370d 23be
000001c0: a1d8 1cbe b99f 29bd 9583 b83d 0905 cdbd
000001d0: 0b84 ac3a 2c79 2ebe 44f3 f7bd 9725 bc3d
000001e0: 65c4 9d3d 08c9 d33d f34b 83bd 35aa 1e3e
000001f0: e848 0bbd 9136 19bd ac0a 583c 9812 3fbd
00000200: 09d7 bebd a273 94bd c83c 323d 80e0 18be
00000210: 1ac6 693e 09ea 953e 4c61 c03d 17d7 603d
00000220: 9bf0 48be 9f0d a13e 0dc3 30bd b83e d33e
00000230: 19fd 17be 9824 803d 1ed5 043d 1ff4 db3c
00000240: 4f39 7c3e 5803 e8bd 62a1 9dbe ad89 1e3e
00000250: 58f4 6ebe 3469 36be 595c aa3e 8343 83bd
00000260: 0594 473e e21a 18be 959b 24bd 652b 8abe
00000270: aabf adbe 01d5 df3d 761b 9f3c 73c9 543d
00000280: a92b a13d 3240 1a3d a2fe 4f3d 0c1b d4bd
00000290: 51e0 febd d0c4 573d ceb8 333e b488 863e
000002a0: 5e82 3fbe 06cb 073e eb60 5a3c 684b 3a3e
000002b0: 61fc a2be f7d0 c73e bee0 acba 37d9 0f3d
000002c0: 6285 e83d f6fa 593c 4389 063f b4f1 bf3d
000002d0: c9a7 0fbe 4927 533e 93ad 473e e906 aabd
000002e0: 95d3 73bd 3748 983d 2c48 093d 5c3f fabe
000002f0: 253f 14bc c300 443c 58ce 01be 56f3 ea3d
00000300: 2507 6cbe 0d42 df3d e6f5 9c3e 27ea 76be
00000310: b7f2 d8bd 506c c1be 3f21 923d a65c 143e
00000320: 6bda c03e 0248 1b3d f44b 0dbf 5c0a 5c3d
00000330: 5487 e2bb 2536 253e c3e6 ebbd 6d14 1abe
00000340: 89a0 e7bd ddaa 543d 384f 82bd f172 38be
00000350: baf3 35bd 9a9e 34bd aae5 8cbb 7a1f 55be
00000360: cebc 27bd 89e8 843e b2b2 b53d 75ac b8be
00000370: 428b d13d 6751 e7bd d587 debd fe9b e33e
00000380: 55d4 6ebe 9b8a 49be eb4e 0abd 3a41 9f3d
00000390: 7f98 663e 8ca6 58bd 2315 b43d 7fdf fe3d
000003a0: be6b 503c 36bb 8aba acb5 523d 6200 e43a
000003b0: 27f3 d3bd 97a8 363e f6fc 1cbd 7a79 363d
000003c0: e38b 2fbd 765f ad3d 9953 183e 25bc 79bd
000003d0: 8456 ce3c a9f5 c33c 40d4 b2bd c379 58be
000003e0: 1a56 243e 2da8 c53d 2021 e73d 59b9 b7bd
000003f0: f086 953d fb87 b3bd a6a7 a7bd 402b 15be

cnn.3.1.bias f4 [96]
0.0005473194 0.0003342401 -6.8388104e-06 -0.00032993726 -0.00056360336 -0.00037923866 -0.00019942227 6.3048465e-06
0.00032739982 0.00033447897 0.00026673425 -1.4634084e-05 0.00014620356 0.0001256709 -0.00033780266 -0.0006045327
-0.00047527737 -0.00023541875 -0.00055632496 4.009231e-05 -0.0024688544 0.0006290334 8.4774554e-05 -0.00040391664
-0.00041890962 -0.00037535126 -3.6525107e-05 -0.00066732673 0.00014208403 2.031304e-05 -0.00074399164 -0.000851534
-0.0002008305 -0.00012978405 0.00010188164 0.00053426693 7.300331e-05 -0.00016957437 0.00063085044 0.0027859767
-0.00050441624 0.00089378643 0.0003843392 0.00029484037 0.0003202847 -0.00073568244 -0.0014165338 -0.0006016752
0.00045461344 4.289957e-05 -0.00027085227 0.00028154318 -0.00014249067 0.00028599543 -0.00030799542 -8.2261264e-05
-0.00062352855 -0.0017983775 0.000708997 0.0010670118 -0.0009843878 6.910504e-05 0.0017756409 0.00027442633
0.0004985785 -7.017568e-05 0.0010943416 -0.0006275623 0.00019086574 -0.0014402326 -0.0004698716 -0.00033746852
0.000742479 4.060221e-05 0.00046558707 0.00060840644 0.0003344122 0.00064557197 0.00048121708 -0.00037741414
0.00033831067 -0.0006466 -0.00025653362 -0.00011927777 0.00016622507 -0.00091057236 -0.0010745099 0.00029187347
0.0004703287 0.00022530468 0.0009619573 -0.0007669163 0.0008316442 0.0008884229 -0.0003074977 0.0003529746
00000000: fc79 0f3a f23c af39 ef78 e5b6 6efb acb9
00000010: c8be 13ba 8dd4 c6b9 021c 51b9 388e d336
00000020: dca6 ab39 025d af39 77d8 8b39 ea84 75b7
00000030: 384e 1939 86c6 0339 1b1b b1b9 8179 1eba
00000040: a62e f9b9 bdda 76b9 56d6 11ba ca28 2838
00000050: 81cc 21bb b8e5 243a fec8 b138 c6c4 d3b9
00000060: 19a1 dbb9 cbca c4b9 8932 19b8 8aef 2eba
00000070: 64fc 1439 ec65 aa37 6f08 43ba 7b39 5fba
00000080: 0796 52b9 a416 08b9 4aa9 d538 0c0e 0c3a
00000090: 5b19 9938 c6cf 31b9 a85f 253a ef94 363b
000000a0: cd3a 04ba fe4c 6a3a 2281 c939 ce94 9a39
000000b0: e2eb a739 d0da 40ba fdaa b9ba bdb9 1dba
000000c0: 2f59 ee39 10ef 3338 2d01 8eb9 169c 9339
000000d0: 8c69 15b9 a8f1 9539 727a a1b9 ae83 acb8
000000e0: 4b74 23ba 89b7 ebba fcdb 393a fada 8b3a
000000f0: 9306 81ba 7cec 9038 9fbc e83a e1e0 8f39
00000100: 09b3 023a 482b 93b8 0370 8f3a fe82 24ba
00000110: 2223 4839 30c6 bcba 1959 f6b9 42ee b0b9
00000120: eca2 423a 4b4c 2a38 0a1a f439 777d 1f3a
00000130: 0c54 af39 9a3b 293a dd4b fc39 abdf c5b9
00000140: 4a5f b139 9780 29ba 5c7f 86b9 c424 fab8
00000150: b44c 2e39 7ab3 6eba 92d6 8cba 9806 9939
00000160: 7396 f639 c43f 6c39 dd2b 7c3a e20a 49ba
00000170: b302 5a3a 0de5 683a a537 a1b9 730f b939

cnn.3.2.weight f4 [96]
0.86906713 0.74245036 0.8732685 0.94061756 0.9576259 0.7866735 0.7623957 1.0331248
1.1524286 0.8113946 0.76383996 0.8929314 1.0748916 0.8457745 0.84876335 0.9837916
0.9404902 1.1418848 0.835093 1.2591293 0.94150335 0.96551096 0.8960059 0.8463931
0.98480195 0.7191955 1.0616273 1.1099255 0.82659286 0.86871004 1.1387631 0.96067375
0.71648604 0.81416166 1.1382576 1.1421009 0.97774863 1.1701598 1.0444742 1.1238576
1.0697174 0.93100244 1.0777036 0.77019984 0.846927 0.9639071 0.9205009 0.9760597
1.1052018 1.0883222 0.91010785 1.0590539 0.85833883 0.9669184 0.9476169 0.8738095
1.0210567 0.7282107 0.7992608 0.8425398 0.8351765 0.8849921 0.9925789 1.0159615
0.95804256 0.803854 1.0420388 0.8713041 0.7982687 1.0418841 1.0615454 1.152104
0.81217325 1.1948231 0.7772953 0.9954892 0.72184265 0.9928186 0.8425987 0.91607153
1.0228739 0.8522062 0.79740095 0.850335 0.9592502 1.0453792 1.080718 1.0084846
0.8455501 0.93468785 0.89697087 0.8356555 0.82140726 1.1850528 0.7608843 0.827162
00000000: 2f7b 5e3f 3a11 3e3f 868e 5f3f 50cc 703f
00000010: f926 753f 6f63 493f 5d2c 433f 6f3d 843f
00000020: c882 933f 8eb7 4f3f 048b 433f 2797 643f
00000030: 0c96 893f ad84 583f 8e48 593f c4d9 7b3f
00000040: f7c3 703f 4829 923f a8c8 553f 262b a13f
00000050: 5d06 713f ba2b 773f a560 653f 38ad 583f
00000060: fb1b 7c3f 321d 383f 67e3 873f 0a12 8e3f
00000070: 979b 533f c863 5e3f fdc2 913f b7ee 753f
00000080: a16b 373f e66c 503f 6db2 913f 5d30 923f
00000090: bc4d 7a3f ccc7 953f 55b1 853f 91da 8f3f
000000a0: 80ec 883f 2d56 6e3f 31f2 893f d12b 453f
000000b0: 35d0 583f 9ec2 763f f2a5 6b3f 0cdf 793f
000000c0: 4177 8d3f 244e 8b3f d4fc 683f 148f 873f
000000d0: 18bc 5b3f f787 773f 0597 723f fbb1 5f3f
000000e0: fcb1 823f 046c 3a3f 5b9c 4c3f b0b0 573f
000000f0: 21ce 553f d88e 623f a719 7e3f 070b 823f
00000100: 4742 753f 60c9 4d3f 8761 853f c90d 5f3f
00000110: 565b 4c3f 755c 853f b8e0 873f 2578 933f
00000120: 96ea 4f3f f7ef 983f d3fc 463f 61d8 7e3f
00000130: aeca 383f 5c29 7e3f 8cb4 573f aa83 6a3f
00000140: 88ed 823f 2f2a 5a3f 7822 4c3f 8eaf 593f
00000150: 6c91 753f fcce 853f f854 8a3f 0616 813f
00000160: f975 583f b447 6f3f e29f 653f 85ed 553f
00000170: bf47 523f cfaf 973f 50c9 423f e4c0 533f

cnn.3.2.bias f4 [96]
-0.24833831 -0.024017768 -0.007870592 0.059268054 -0.018329749 -0.32470363 -0.2773015 0.08749621
-0.1978384 -0.12689696 -0.30199164 -0.16193157 -0.10085195 -0.32255325 0.14298958 0.10941871
-0.085976034 -0.05992188 -0.36724138 -0.2436833 -0.27500993 -0.10215574 -0.20259139 0.0812696
-0.22316098 -0.12314643 -0.1077806 -0.27532974 0.14061064 -0.3424109 -0.109250665 -0.057558507
-0.31818712 -0.26072466 -0.25089404 0.04088104 -0.16126132 -0.18813656 -0.10154555 -0.27005652
-0.021549877 0.37371868 0.012570022 -0.24208626 -0.016844338 0.13528156 -0.21775748 -0.2586318
0.06264086 -0.2557157 -0.24047475 -0.0011663543 -0.46018222 0.00945656 -0.13145296 -0.20027573
-0.27887836 -0.024180114 -0.2109274 -0.32686505 -0.27631372 -0.07245042 -0.28128827 -0.2707448
-0.073521465 -0.49110296 -0.2580801 -0.24911928 -0.27373406 0.12703872 0.04027561 -0.26992983
-0.3059154 -0.28045273 -0.0957994 -0.29296833 -0.24834631 0.12103763 -0.22514947 -0.14588797
0.21659599 -0.2676995 -0.13653502 -0.14981388 0.103357464 -0.25267953 -0.06617497 -0.2120529
-0.24026313 -0.29793936 -0.4586687 -0.12085403 -0.36893266 -0.12776054 -0.27396923 -0.2241617
00000000: 664c 7ebe e9c0 c4bc a8f3 00bc 0fc3 723d
00000010: 4528 96bc 8e3f a6be 76fa 8dbe 3731 b33d
00000020: 2696 4abe 47f1 01be a69e 9abe 64d1 25be
00000030: 788b cebd b325 a5be dc6b 123e eb16 e03d
00000040: 3414 b0bd a570 75bd 1007 bcbe 1d88 79be
00000050: 1ace 8cbe 0737 d1bd 1e74 4fbe ad70 a63d
00000060: 5084 64be 3234 fcbd 13bc dcbd 05f8 8cbe
00000070: 3cfc 0f3e 7b50 afbe d0be dfbd 78c2 6bbd
00000080: 6ce9 a2be b47d 85be 2f75 80be e172 273d
00000090: b021 25be dfa6 40be 1df7 cfbd d944 8abe
000000a0: 5e89 b0bc 0e58 bf3e 7ef2 4d3c 76e5 77be
000000b0: 23fd 89bc 4087 0a3e d1fb 5ebe 636b 84be
000000c0: da49 803d 2bed 82be 033f 76be 5be0 98ba
000000d0: 019d ebbe b0ef 1a3c 9b9b 06be 1515 4dbe
000000e0: 25c9 8ebe 6015 c6bc 5afd 57be db5a a7be
000000f0: fe78 8dbe e360 94bd 0405 90be 109f 8abe
00000100: 6c92 96bd d971 fbbe 1323 84be 2019 7fbe
00000110: df26 8cbe 7016 023e 0af8 243d 3e34 8abe
00000120: f1a0 9cbe 8097 8fbe 7a32 c4bd f2ff 95be
00000130: 7f4e 7ebe 94e2 f73d 958d 66be a863 15be
00000140: 57cb 5d3e e90f 89be d6cf 0bbe cf68 19be
00000150: 14ad d33d 365f 81be be86 87bd 6524 59be
00000160: 8a07 76be 828b 98be a0d6 eabe 5182 f7bd
00000170: bee4 bcbe a9d3 02be b245 8cbe a58a 65be
